streamlit_test/LSTM_model1101.pth (torch, 268293 bytes, 9 tensors)

weight_ih_l0 f4 [256, 62]
000000 24 33 0c 3c 33 8f aa be 3b bb 3c bd 7f d6 5d bf
       0.008557115 -0.33312377 -0.046076994 -0.8665542
000010 82 1f a6 bd 0e 00 18 bf cb a3 a8 bf 56 ae c7 3f
       -0.081114784 -0.59375083 -1.3174986 1.5600078
000020 21 a0 89 bd 94 75 48 bf d5 57 97 bc f5 d3 be bc
       -0.06719995 -0.7830441 -0.018474499 -0.023294428
000030 83 b8 cb 3d 75 8a 83 3f 72 e8 f7 bd a9 8b 96 be
       0.09947302 1.0276629 -0.12104882 -0.29403427
000040 56 d4 46 3f 9c 99 b5 3d c4 ac 69 3e 6b 4f 76 bf
       0.7766775 0.08867189 0.22819811 -0.9621493
000050 04 f4 8c 3e 52 e0 0c bf 03 5b 1e bf 0f f7 62 be
       0.2752992 -0.55029786 -0.6185762 -0.22164558
000060 58 4f c9 bd 30 83 d7 3d 4f bd 85 bd b9 7c 1b 3d
       -0.09829587 0.10523069 -0.065302484 0.03796074
000070 c5 6a 3b 3d 86 56 da 3d dd f8 24 be 37 ed b5 be
       0.04575612 0.10661034 -0.16110559 -0.35532543
000080 d2 dc c5 bc d0 b8 e9 3d 7b 3d 54 be be ee d8 3e
       -0.024153147 0.11412203 -0.20726578 0.42369646
000090 bf af 21 be 26 ee 2f 3e 04 fb 6c be 35 f1 e8 be
       -0.15789698 0.1718069 -0.2314263 -0.45496526
0000a0 96 ae 24 3f cf 96 56 3c a3 9c c2 3d 8f dd 39 be
       0.64328897 0.013097479 0.09502532 -0.18150924
0000b0 70 37 a3 3c 31 b7 fa 3c bc c3 19 bc cc 62 45 3e
       0.019923896 0.03060493 -0.009385046 0.1927597
0000c0 e4 af dc bd d8 e8 05 3f f1 95 95 be 4e 39 bb bd
       -0.10775736 0.52308416 -0.2921596 -0.091417894
0000d0 34 ea fa 3d 81 95 e3 be dc ab 49 be e1 7d aa 3c
       0.12251702 -0.4445 -0.19694465 0.020811977
0000e0 88 fc 4b 3d 8b fb 09 3e 2d 99 31 be 26 76 40 3d
       0.04980138 0.13474862 -0.17343588 0.046987675
0000f0 03 7f 90 be a9 4f a4 bd e2 73 0b 3c 92 d3 c1 3e
       -0.28221902 -0.080230065 0.008511515 0.37856728
000100 79 27 9a bf 5f 9d e0 3d 3d 01 90 be 37 ad 26 be
       -1.2043296 0.10967516 -0.28125945 -0.16277014
000110 78 98 41 bf 3d 1b 4a bf b6 71 4e 3e a7 1e df be
       -0.75623274 -0.7894781 0.20160565 -0.43578073
000120 2d 29 83 be e9 54 23 be ec 1d 5d bd 91 34 9f 3e
       -0.25617352 -0.1595036 -0.053983614 0.31094792
000130 b7 ae 08 bf a1 1e c0 bd 52 fb 2f 3f 54 ce fe be
       -0.53391594 -0.09380842 0.6874286 -0.4976679
000140 94 b2 84 bc 5a 8c 2f be be d7 37 3f 4b 69 36 be
       -0.016198434 -0.17143384 0.7181357 -0.17813604
000150 fa cf 31 3f ff 47 21 bf 65 e3 2a be 67 76 77 bd
       0.6945797 -0.6300048 -0.16688307 -0.06041565
000160 a3 f4 7e bd 41 40 60 be e6 2c 69 be 7f a4 df bc
       -0.062245023 -0.21899511 -0.22771034 -0.027300118
000170 d1 8c 56 3c a1 3e a4 be de 09 bc bd d1 05 ce bc
       0.013095097 -0.32079032 -0.091815695 -0.025149258
000180 06 4a 55 3f c4 68 60 bd 62 f1 12 be e3 07 11 3e
       0.83316076 -0.054787412 -0.14349893 0.14163165
000190 b5 0d cd 3e 96 03 4a 3d 16 f4 66 3d b0 82 85 be
       0.4004952 0.049319826 0.056385122 -0.2607627
0001a0 96 5c 9b bd 9f 63 eb 3d c9 90 23 3e a8 d6 a6 3b
       -0.07586019 0.114936106 0.159732 0.005091507
0001b0 fc e5 61 be 07 28 26 be 77 c4 53 be 56 16 ae 3e
       -0.22060388 -0.16226207 -0.20680414 0.34001416
0001c0 d1 c0 37 3d 9f ce 2c 39 d5 e2 1f be e4 db 44 be
       0.04486162 0.0001648017 -0.15613873 -0.19224507
0001d0 e3 ed 2c bd dd 86 84 3e c1 9a 73 be 19 c3 02 3e
       -0.042219054 0.25884143 -0.23789503 0.12769736
0001e0 0d 46 b8 3d 78 ce e7 3c 00 82 a6 3e 60 81 0f be
       0.08997736 0.028296694 0.32521057 -0.14014196
0001f0 aa dd 3a 3d 30 af ae 3d ea 37 21 3f c8 83 5f bf
       0.04562155 0.08529508 0.62975943 -0.8731046
000200 51 4f 6e bd 1c 4f 8a bc 64 d8 f0 3d 55 6b ff be
       -0.05818111 -0.016883425 0.11760023 -0.49886575
000210 af b6 1d bf ff 96 fc be 8f 52 90 bf c2 11 11 bf
       -0.6160688 -0.4933395 -1.1275195 -0.5666772
000220 79 7d 7d bf 0a 7b 8f be e8 13 85 be 3d ea 0f 3e
       -0.9901958 -0.2802356 -0.2599175 0.14054199
000230 c8 57 06 3f a8 ec 59 bd 83 b6 5e be f3 b6 3c be
       0.52477694 -0.05320421 -0.2174931 -0.18429165
000240 0f ba 90 be a8 b1 ef 3e cd b6 c4 be aa ff fc bd
       -0.2826695 0.46815228 -0.38420716 -0.123534516
000250 b5 ad 70 3e 31 93 95 3e fe e0 05 bc a1 70 dd bd
       0.23503764 0.2921386 -0.008171318 -0.10812498
000260 0c fe 20 3d ec b8 e3 3e 8f de 82 3e 2a b5 e4 be
       0.039304778 0.44477022 0.25560424 -0.44669467
000270 07 5b 3f 3e f0 70 8b 3d f2 13 fd 3d ab d7 06 3f
       0.18687068 0.068086505 0.1235732 0.52672833
000280 ea f5 92 bd 75 79 02 bd d7 ae bd 3e 2a dc 2d 3e
       -0.07175811 -0.03185411 0.37047455 0.16978517
000290 da a7 26 be b4 9c 1f 3d 44 30 41 3d c0 b0 48 3c
       -0.16274968 0.038967803 0.04716517 0.012249172
0002a0 29 7a 88 bc af 2a e0 3d 21 f7 05 3d a0 81 41 be
       -0.016659813 0.10945641 0.032706384 -0.18897104
0002b0 e7 01 c5 be e1 a0 8e 3e 53 b1 a6 3d 3c ee ea bd
       -0.38478014 0.27857116 0.08139291 -0.11471221
0002c0 70 00 92 3e 68 5b fa be 6f c2 fe 3e 72 ec 36 3e
       0.2851596 -0.48897862 0.49757716 0.17863634
0002d0 00 c0 86 bd 2f ff 9a 3e 20 27 1f bd bf 6a 12 3e
       -0.0657959 0.30272815 -0.038855672 0.14298533
0002e0 b1 7d 22 be 17 58 5a 3c ea c1 f8 bd 01 38 00 3f
       -0.1586826 0.013326666 -0.12146361 0.50085455
0002f0 25 2f a5 be 72 10 1e 3f 4b a8 ad be 47 b3 86 bf
       -0.3226253 0.61743844 -0.3391746 -1.0523461
000300 bd eb 03 3f 71 bf 21 bc 5d 8c 16 bf 72 30 92 bf
       0.51531583 -0.009872303 -0.5880793 -1.1421034
000310 0e f1 da be 2f cc b6 3c f0 82 7d be 3a 1f 30 bd
       -0.42762035 0.02231416 -0.2475698 -0.04299853
000320 3b 69 3d 3e 35 ec 52 bf 3d 75 43 3f a5 23 1c bd
       0.18497173 -0.82391673 0.76350766 -0.03811993
000330 ba d9 19 bf 70 0c 93 bc 21 6b 2c 3f 03 01 31 bf
       -0.6009785 -0.017950267 0.67350966 -0.6914217
000340 c6 f7 4e 3f 94 11 80 3c 59 b6 68 3d 73 dc a9 bd
       0.8084682 0.015633382 0.056814525 -0.082940005
000350 2c 1e c6 3d b1 09 22 bf 40 35 7a be 4e 9e 4a bd
       0.096737236 -0.6329604 -0.24434376 -0.049467377
000360 65 64 83 3d bf c3 30 3e 52 a0 12 be af 64 2b 3b
       0.06415633 0.17262171 -0.1431897 0.0026152541
000370 f6 52 d0 be b4 58 5b 3d d1 9b 07 be 3d ba 72 3e
       -0.40688294 0.05355139 -0.13243033 0.23703857
000380 50 60 82 3e 92 8e f1 3c f8 e6 b2 be 48 89 a3 3d
       0.25464106 0.029486928 -0.3494184 0.07985169
000390 34 be 4a 3d bf 52 12 3e 0f 5a a3 bd 58 09 87 bd
       0.049497798 0.14289378 -0.07976162 -0.06593579
0003a0 eb aa c4 bd 4e d4 16 3e 9a da 8e be 4e b9 8d 3e
       -0.096029125 0.14729425 -0.27901155 0.2768044
0003b0 4e 48 8f 3d 1e bf 6d 3d 34 9a dc bd d1 ba a6 3d
       0.06996213 0.05804359 -0.107715994 0.08141101
0003c0 d7 d5 07 3f 35 92 10 be 7b e6 f2 bc f4 9a 17 3e
       0.5306067 -0.14118274 -0.029650917 0.14805204
0003d0 98 64 1c 3e 74 bd 8d be 5a 99 3f 3d 4b b8 0f bd
       0.15272748 -0.27683604 0.046777107 -0.035087865
0003e0 47 f1 86 be 00 4b 00 bf 59 80 0c 3f 2b 18 e0 be
       -0.26355955 -0.5011444 0.54883343 -0.4376844
0003f0 77 de 1c 3f 85 16 87 bf 27 22 2d be 12 ac e4 3d
       0.61276954 -1.0553747 -0.1690756 0.11165632

weight_hh_l0 f4 [256, 64]
000000 2c c4 c3 3d a2 93 ed 3d 18 8f 4a 3d 54 12 2e bd
       0.09558901 0.11600424 0.04945287 -0.042497948
000010 10 bd 23 3d ce 37 c0 bd ac 64 fe 3d 14 65 6e bd
       0.039975226 -0.09385644 0.124215454 -0.058201864
000020 38 b6 91 3c 2c c4 bf bd 70 07 f7 bc e0 66 d9 bd
       0.017787084 -0.09363589 -0.030154914 -0.10615325
000030 76 cf b4 bd 7c be cd bd d2 08 96 3d 0c f4 85 3d
       -0.088286325 -0.10046098 0.07325901 0.06540689
000040 b6 a4 a9 bd c0 39 47 3b 78 57 5c 3d 64 94 a8 3d
       -0.08283369 0.0030399412 0.053794354 0.08231428
000050 40 1c ea 3b a6 ac a6 3d be e3 8b bd 7a 9d 91 bd
       0.007144481 0.08138399 -0.06830548 -0.071101144
000060 58 82 9e 3c ce 7e 9a 3d be 06 b2 3d a2 0d b8 3d
       0.019349262 0.07543717 0.08692692 0.08986975
000070 64 f0 3d bd 50 31 59 bc 74 1f 40 bd 68 79 9c 3d
       -0.046371832 -0.013256386 -0.046904996 0.07640344
000080 a0 51 bc bc 24 05 b1 3d fe a5 91 bd 88 8e c4 bd
       -0.02298814 0.086435586 -0.071117386 -0.09597498
000090 42 3c d8 3d dc 6a 48 bd 00 7d 1d 3d 3e d2 a7 3d
       0.10558368 -0.048930034 0.038449287 0.081943974
0000a0 50 64 54 bc 40 a6 9c bb b8 c9 fc 3c 56 b5 a0 3d
       -0.0129633695 -0.0047805607 0.030857906 0.07847087
0000b0 40 f9 e0 bc 08 9c b0 bc 02 5e b6 3d 68 96 bb 3d
       -0.027462602 -0.021558776 0.08904649 0.09159547
0000c0 7e a1 eb bd ac 11 70 bd a0 ff b5 bd c4 09 df bd
       -0.115054116 -0.058610603 -0.08886647 -0.108905345
0000d0 c0 4d 39 bb 64 14 ee bd 00 6a d0 bd 9a 30 f3 bd
       -0.0028275102 -0.11624983 -0.10176468 -0.118745044
0000e0 28 5e f0 3c 78 af b5 3c 2c fc 9f 3d cc 57 d9 bd
       0.029341772 0.022178397 0.0781177 -0.10612449
0000f0 60 1a ab bb c2 33 90 bd b2 02 9e bd ea d5 99 bd
       -0.00522165 -0.07041122 -0.07715358 -0.07511504
000100 3e 1c d5 bd 30 7b ab 3c d4 47 6c bd 1e 3f 96 bd
       -0.104057774 0.020932764 -0.05768569 -0.073362574
000110 90 98 bd 3d e8 f2 f4 bc 70 d5 6f bc a8 0f 26 3d
       0.092576146 -0.029900983 -0.01463829 0.040542275
000120 e8 08 ac bd 66 d8 c6 bd 9e aa 8d bd b4 fa 0d 3d
       -0.08400136 -0.097092435 -0.06917308 0.034662917
000130 fe 63 ca 3d 14 f7 84 bd 48 55 98 3c d0 f7 a9 bd
       0.09882353 -0.06492439 0.018595353 -0.082992196
000140 a4 3f 5b 3d f8 ae ee 3c e0 99 b2 3b 60 5f 8e 3b
       0.05352749 0.029136166 0.0054504722 0.0043448657
000150 4c de 74 bd 24 2a 61 3d 72 35 b5 bd c8 c1 b3 bd
       -0.05978231 0.05497183 -0.088480845 -0.08777195
000160 e0 e0 bf 3d 46 31 e1 3d 68 83 22 bd 18 f2 97 3c
       0.093690634 0.10995726 -0.0396761 0.018548056
000170 d0 e3 bf 3d 2c 1e fd 3d 48 ff eb 3c 76 51 e5 3d
       0.09369624 0.123592705 0.028808251 0.11197178
000180 70 9d 0e 3c 54 b6 42 3d 70 1a cd bc c0 04 83 3b
       0.008704528 0.047537163 -0.02503702 0.003998369
000190 44 7d 9a bd 6a 97 87 3d c4 ba 62 bd 40 1c 4e bb
       -0.07543424 0.06620677 -0.055353895 -0.0031449944
0001a0 e8 60 64 bd 96 74 cb bd 80 83 41 bb e4 a2 57 bd
       -0.05575648 -0.099343464 -0.0029527843 -0.05264558
0001b0 2e 74 d2 bd 62 52 d8 3d 68 1e a0 3c b0 0b dc 3c
       -0.10276066 0.10562588 0.019545749 0.026861042
0001c0 e8 f8 95 bc cc 9c 82 bd 1c d2 67 3d b6 7c a7 3d
       -0.018307164 -0.06377563 0.05659686 0.081780836
0001d0 30 cf 9f bc bc f1 95 3d fe 81 fc bd 20 4e 02 bd
       -0.019507974 0.07321498 -0.123294815 -0.031812787
0001e0 a4 89 d1 3d 0c 92 a2 bd c6 81 a4 bd e8 6e f5 3d
       0.10231331 -0.079380125 -0.08032565 0.11984044
0001f0 d4 a4 0d 3d 70 81 05 3c c0 70 f9 3b c0 00 e4 bc
       0.03458102 0.008148536 0.007612318 -0.027832389
000200 f0 b7 3b bc c8 1c ad bc 2c 1d c2 bd ea 2c cd bd
       -0.011457428 -0.021131888 -0.0947822 -0.10018332
000210 90 9b fa bc 48 e1 6f 3d 78 6f f3 bc e8 79 c7 3d
       -0.030591756 0.058564454 -0.029716238 0.09740049
000220 c0 fd 1d bb c2 c1 dd bd 20 55 98 3c 34 32 98 3d
       -0.0024107546 -0.10827972 0.018595278 0.074314505
000230 dc 01 01 3d 64 bd 2c 3d b0 9e e1 bc 78 b4 f6 3c
       0.031495914 0.042172804 -0.027541488 0.030115351
000240 e4 68 fa 3d a8 36 94 3c 40 63 5a 3d c4 84 b0 3d
       0.122270375 0.018092468 0.05331731 0.08619073
000250 b4 b7 dd bd 7e 06 96 bd 1e 2a dd 3d 24 ca 74 3d
       -0.10826054 -0.07325457 0.10799049 0.05976309
000260 54 c9 4d bd 78 a3 05 3d c0 60 59 bc 00 26 94 ba
       -0.05024083 0.0326266 -0.013267696 -0.0011302829
000270 e0 4e ee bd 7c 36 58 bd 70 df fe bc 60 93 8f bd
       -0.11636138 -0.052786335 -0.031112403 -0.070105314
000280 30 d9 dd bc 40 7d f3 3d 7a a6 a6 bd 40 c3 0b 3b
       -0.027081102 0.11889124 -0.08137222 0.0021326095
000290 e8 a2 02 bd d0 f4 2e bc cc 9f 77 bd 54 42 ba bd
       -0.03189364 -0.010678485 -0.06045513 -0.09094682
0002a0 56 ae e8 bd 78 b5 d1 bc 18 98 c2 bd 70 d7 f9 bd
       -0.11361377 -0.025599226 -0.09501666 -0.121992946
0002b0 bc 2f fc 3d c0 fe 87 bb 28 8f 9e bd 44 2a 26 3d
       0.12313792 -0.0041502416 -0.07742149 0.04056765
0002c0 5c 50 5c 3d 60 8e 72 bc 58 a3 bd 3d a8 a9 c6 bd
       0.053787574 -0.014804453 0.09259671 -0.09700328
0002d0 1a c8 af 3d 30 21 70 3c 00 b9 7c ba 70 84 41 3d
       0.08583088 0.01465635 -0.0009640604 0.047245443
0002e0 fa 18 e7 3d 30 05 0b bc 02 1f ec bd 82 45 88 3d
       0.11284061 -0.0084851235 -0.11529352 0.066538826
0002f0 c0 3d e3 bd 2e c2 bc 3d 48 21 a4 bd c8 88 a2 bc
       -0.11095762 0.09216724 -0.080141604 -0.019840613
000300 b4 37 36 3d 00 59 af 3d 02 ff ee 3d 78 ef a2 bd
       0.044486716 0.08561897 0.11669733 -0.07955831
000310 46 09 cb 3d 30 02 ec 3d 0a df f2 bd 10 ed 9f bc
       0.09913878 0.11523855 -0.118589476 -0.01952222
000320 02 98 da bd a6 d5 ee bd 6a 3e a9 3d 8c 2c 42 bd
       -0.106735244 -0.11661844 0.08263858 -0.047405764
000330 80 ac 4a 3d 64 aa 7a 3d 4c 7b 70 3d ec e8 c3 3d
       0.049480915 0.061197653 0.058711335 0.09565911
000340 b8 d1 77 3d 74 f8 f5 3d 74 18 96 bd 4a c5 a5 bd
       0.060502738 0.12010279 -0.07328883 -0.080942705
000350 e8 3c 87 3d c0 b4 67 3c 10 85 d9 3c 00 04 07 bd
       0.06603414 0.014142215 0.026552707 -0.0329628
000360 bc 05 11 3d e2 5b f7 bd 02 c1 a1 bd 44 01 1e bd
       0.03540586 -0.12078072 -0.078981414 -0.038575426
000370 f0 58 08 3c 54 66 37 bd 5c 4d 12 bd 98 11 f8 bc
       0.008321986 -0.044775322 -0.035718307 -0.030281827
000380 26 ca e2 3d 76 70 ce 3d bc 08 aa 3d 4e 39 fb 3d
       0.11073713 0.10080044 0.08302447 0.122667894
000390 cc 05 84 3d 9e 8f cb bd 40 f5 d0 3c 8a 52 8e bd
       0.06446418 -0.09939502 0.02550757 -0.06949337
0003a0 ac 61 7e bd 10 8c 58 3c e8 7d be bd d4 9b c4 bd
       -0.062104866 0.013216987 -0.093013585 -0.09600034
0003b0 70 21 12 3d 6e 34 c1 bd 94 d7 ff 3d 3a 02 87 3d
       0.03567642 -0.09433828 0.1249229 0.065922216
0003c0 3a 23 ca bd 78 12 6a 3d b8 f5 3d bd f0 51 d3 bd
       -0.0987 0.05714652 -0.046376914 -0.10318363
0003d0 d0 cb be bd 00 b9 4b 3a 54 6e ad bd d8 6a bb bd
       -0.09316218 0.00077714026 -0.08468309 -0.09151238
0003e0 60 6b b2 bd 68 e8 c3 3d 86 20 c2 3d f8 58 e8 3c
       -0.087118864 0.09565812 0.094788596 0.028362736
0003f0 a0 3c 7d 3d 74 c7 7c 3d fc b0 af bd 30 59 08 3c
       0.061825395 0.06171365 -0.08578679 0.008322045

bias_ih_l0 f4 [256]
000000 fc 8e 64 3d 6d 06 f4 3c 5a 05 c4 bd 38 2e 36 3d
       0.055800423 0.02978822 -0.09571333 0.04447767
000010 71 2e 96 bc 73 5c 40 bd f8 cd c7 3d bc e1 9e 3d
       -0.018332692 -0.046963166 0.09756082 0.07757899
000020 cb 29 43 3e 77 f9 56 bd 16 ee 6d 3d e3 13 8c bd
       0.19058912 -0.052484002 0.058088385 -0.068397306
000030 4e 95 94 3d e5 c2 9a 3c b9 d5 c9 3b e4 3f 4f 3d
       0.0725504 0.018891761 0.006159511 0.05059804
000040 77 9b a0 bd 8a 51 22 3e ec 74 07 3e a9 27 c7 bd
       -0.078421526 0.15851417 0.13228196 -0.097243614
000050 d8 ab 95 bc 7e 68 d4 3d 8d e6 a9 3d 05 b7 2b 3e
       -0.018270418 0.10371493 0.08295927 0.16769035
000060 2e cf 9e bd 38 11 25 3c b7 c0 9a bc 0d c7 1f 3d
       -0.0775436 0.010074906 -0.018890722 0.03900819
000070 34 b2 d2 bd 08 c1 05 be be a8 12 3e 9f 18 55 bd
       -0.10287896 -0.13061917 0.14322183 -0.052025434
000080 19 d2 2c bc a2 10 cb 3d 34 ec 0e 3e 27 2b 99 3c
       -0.010548138 0.09915282 0.13957292 0.018697334
000090 4f 05 0f be b0 59 7a bd 2c 08 7d 3d 86 da b0 3d
       -0.13966869 -0.06112069 0.06177537 0.0863543
0000a0 e7 ea 22 3d 8e ae db 3d ab c8 f5 bd 6b cb d2 3d
       0.0397748 0.10726653 -0.12001165 0.10292705
0000b0 35 d6 c6 bd 68 e9 a9 bd ee 46 2c 3c ae 3a 05 3e
       -0.097088255 -0.08296472 0.010514958 0.13010666
0000c0 33 f5 84 3c 46 7f 34 bd 0a 0c 0a bd 59 d5 f4 3c
       0.016230201 -0.04406669 -0.033702888 0.029886888
0000d0 45 fb 9c 3d 9d 81 40 3e ca ec d4 bc d9 84 44 3e
       0.07665113 0.18799444 -0.025991816 0.19191302
0000e0 a3 7d 16 3e 1a 13 94 3d fd 25 34 bc 54 82 e2 bc
       0.14696364 0.07230206 -0.010995385 -0.027650036
0000f0 88 55 3f bd ae d8 58 3d a6 3d a2 3d f4 39 82 bd
       -0.04671243 0.052941017 0.07921915 -0.0635871
000100 44 de 5f 3d 58 34 c2 3c 7a f6 cc 3d 12 68 bd bd
       0.05465533 0.0237066 0.10007949 -0.092483655
000110 38 9a 55 3d 3e b5 d4 3d b6 9e c1 bd 00 da bd 3b
       0.052149028 0.10386132 -0.094541 0.00579381
000120 84 cf 8f bd 20 2c 5a bd 40 df ae bc 30 2d 99 bd
       -0.07022002 -0.053264737 -0.021346688 -0.07479322
000130 68 84 47 bd e2 15 8c 3d 00 9c 80 ba 84 fc 8c bd
       -0.048710257 0.06840111 -0.0009812117 -0.06884101
000140 54 a7 bf bd 80 fe 27 bb 1c 68 77 3d 2a 2e a4 bd
       -0.09358087 -0.0025633872 0.06040202 -0.080166176
000150 c4 96 6d 3d cc 5b 1d 3d 00 03 7a 3d 68 7f 0d 3d
       0.05800511 0.038417622 0.061038017 0.034545332
000160 e4 f5 f9 bd 6a 57 8e 3d b8 a7 a8 bc f4 5c 8b 3d
       -0.12205103 0.06950267 -0.020587787 0.06804839
000170 98 de 30 bd 5c 26 5a 3d 70 04 ea 3c e0 37 e9 3d
       -0.043181032 0.05325924 0.02856657 0.113876104
000180 52 37 bc 3d 80 dd e7 3d 18 f2 d7 bd 6c c3 c1 3d
       0.09190239 0.11321545 -0.105442226 0.09461102
000190 9a f1 d5 bd b4 04 eb 3d fc 3a eb bd b2 43 bb 3d
       -0.104464725 0.114755064 -0.1148586 0.09143771
0001a0 4c c3 cd 3d f0 d0 57 3d bc 32 1a 3d 24 86 86 bd
       0.100470155 0.052689493 0.03764604 -0.06568554
0001b0 20 82 dd bc dc 9f 78 3d a0 ed 2b bd 90 d5 ae bc
       -0.027039587 0.06069933 -0.041974664 -0.021342069
0001c0 08 5c 60 bd 18 e4 ee 3c fc 24 2d 3d 80 62 d1 3c
       -0.054775268 0.029161498 0.0422716 0.025559664
0001d0 8e 6b a7 3d 9e 91 f0 3d 6e 9c af bd a0 37 7f bd
       0.08174811 0.11746524 -0.085747585 -0.062308908
0001e0 14 e2 ab 3d 62 3d d8 bd bc 91 ab 3d 20 ae c6 3d
       0.0839273 -0.10558583 0.08377406 0.097011805
0001f0 70 2a d8 3c c0 8f d4 3c 58 fc 4b bd 68 05 e8 bd
       0.026387423 0.025947452 -0.0498012 -0.11329156
000200 9f 0d cc bd 06 f0 01 3e 85 7f f9 3c f7 6d af 3c
       -0.099635355 0.12689218 0.030456314 0.02141474
000210 97 ec 3e 3c cb 9d 05 bd 24 86 1c be be 79 2a 3e
       0.011653087 -0.032621186 -0.15285546 0.16648003
000220 00 07 b5 3d 51 f6 b6 bd 1c ca a8 3c de 8c c7 3d
       0.08839226 -0.089337 0.020604186 0.09743665
000230 4c c5 5b 3d 0b 54 a0 3d bb 68 0f 3e c4 a1 6c bc
       0.053654954 0.0782853 0.14004795 -0.014442865
000240 91 e1 96 bd 7e ba 57 bd bb 8c c9 bd 8d a5 c9 3d
       -0.07367242 -0.052668087 -0.09841295 0.098460294
000250 ca 3b 7b 3d ce 33 86 3d 15 89 da bd 97 00 a8 bd
       0.061336316 0.0655285 -0.106706776 -0.082032375
000260 20 80 a5 3d e1 f2 d7 bd b0 b7 d9 bd 02 d1 74 bd
       0.080810785 -0.10544372 -0.10630739 -0.059769638
000270 2c 39 ed 3d 0b 16 1c 3d 6c 74 ec bd 1f 04 44 bd
       0.1158317 0.03810696 -0.11545643 -0.047855493
000280 49 3d a2 bc 81 94 dc bd 49 95 39 bd ee 67 81 3d
       -0.019804614 -0.10770512 -0.045308385 0.06318651
000290 72 52 05 be 42 cf a9 3d b8 89 9a bd 51 f2 2f be
       -0.13019732 0.082914844 -0.07545799 -0.1718228
0002a0 c7 40 72 3d 48 e2 47 bd 7f 9c b0 3c 54 40 e2 bd
       0.059143808 -0.048799783 0.021558998 -0.11047426
0002b0 36 1b c3 3d 77 79 0e 3e af 19 8e 3d 1a b9 54 bd
       0.095266744 0.13913523 0.069384925 -0.05193434
0002c0 d4 72 51 bd a1 5a c4 3c c4 5e 3e bd fc 8b 23 be
       -0.0511349 0.023968996 -0.046477094 -0.15971369
0002d0 01 bf a6 3d 36 45 c3 3d 42 f3 c1 bd 1e e0 87 bd
       0.081419 0.09534685 -0.09470226 -0.06634544
0002e0 f5 02 1c 3e ee 74 93 3d cb ed 93 3d 0a ab a1 bb
       0.15235503 0.07200037 0.0722309 -0.0049337195
0002f0 a0 33 a5 bd a3 89 00 3e 46 ea c1 bd a1 ad ac 3c
       -0.08066487 0.12552504 -0.09468512 0.021078886
000300 70 4b f1 bc 44 47 be 3d 4f 53 95 3d ee d0 d1 3c
       -0.029454917 0.092909366 0.072912805 0.02561232
000310 3f 10 20 3e c1 2d 40 bd 6e f9 8c 3d 34 a2 3d 3d
       0.15631197 -0.046918634 0.068835124 0.046297267
000320 17 4b e2 3d d6 33 8e bd 9f 29 a0 3d 4d 1b f1 3c
       0.110494785 -0.06943481 0.078204386 0.029431963
000330 e8 9d 97 bc ca 49 31 3d 16 45 3e bd 44 7d 1a 3d
       -0.018507913 0.04328326 -0.046452604 0.03771712
000340 2e 25 22 bd 72 dc 84 3d 79 ef f7 3d c4 f0 8c 3d
       -0.03958624 0.06487359 0.12106223 0.0688186
000350 ab e6 a0 bd e9 6b 42 bd 96 93 82 bd 82 7f 0e 3e
       -0.078564964 -0.047466192 -0.06375806 0.13915828
000360 80 49 04 be 42 c7 87 3d 13 25 97 3c 6a 64 bf bb
       -0.12918663 0.06629802 0.018450296 -0.0058408277
000370 e3 ea 6a bd 0b da fd bd 5a 5a 22 3e b8 e5 86 3d
       -0.05735291 -0.12395104 0.15854779 0.06586784
000380 5e 7e 93 bb de 3c df 3b e5 05 37 3e 3e 90 3e 3e
       -0.004501148 0.006812676 0.17873342 0.18609712
000390 73 13 33 3b 45 44 5b be ac 60 bd 3d d2 9e 11 3e
       0.0027324825 -0.21412762 0.09246954 0.14220741
0003a0 62 42 d3 3b 75 74 9c 3d 71 fa 78 3d cf f9 1e 3e
       0.0064471224 0.076394 0.060785715 0.15524982
0003b0 e6 fa 9c 3d 66 ad ec 3b 78 ff d7 3d c2 f8 1b 3e
       0.076650426 0.007222819 0.10546774 0.15231612
0003c0 29 70 8d bd f3 25 1d bd bc e9 7e bc 1d 8c 6b 3d
       -0.069061585 -0.03836627 -0.015558656 0.05750667
0003d0 1f 5e 49 3d 0a c0 3e 3d 75 26 99 3c 10 72 8a 3d
       0.049162026 0.04656986 0.018695096 0.06760037
0003e0 39 5f bf bd bd e7 9f 3d c0 41 1f 3e 55 e4 9d bb
       -0.09344334 0.078078724 0.15552425 -0.004818479
0003f0 27 ee 19 3e 7f c3 14 3e c1 1a 82 bd 9e e9 c8 bd
       0.15032254 0.14527701 -0.06352759 -0.09810184

bias_hh_l0 f4 [256]
000000 71 a5 90 bd fa 2c e5 3d 87 83 3b be 4c 95 a7 bd
       -0.070628054 0.11190219 -0.18311892 -0.08182773
000010 1a 74 36 bd ac d4 d3 3d ba 85 5f 3d 56 f8 3b bd
       -0.044544317 0.10343298 0.05457089 -0.04589113
000020 19 c6 62 3e 0d 98 9a bd 5f 75 3f 3e ae 44 62 3d
       0.22145881 -0.07548533 0.18697117 0.05524128
000030 ec 75 4d 3d f2 5c 37 ba 98 c7 13 be 7e 90 a9 3d
       0.050161287 -0.0006994746 -0.14431608 0.08279513
000040 a9 a7 08 bd 33 02 9d bc 47 dc a1 3c b6 22 48 3d
       -0.03336302 -0.019166088 0.019758357 0.048861228
000050 f0 0c 3c 3c dd ec b9 3c 60 3a ec 3c 68 d7 8b 3d
       0.011477694 0.022695953 0.02883643 0.06828195
000060 67 65 ee 3d bc 0c 05 3e 9a 9f 37 bd e0 85 4a bc
       0.11640435 0.12993139 -0.044829942 -0.01236102
000070 d0 1d 93 bc 6d b4 98 3d 2f 2e 9d bd 9a c7 c0 bc
       -0.017958552 0.074562885 -0.076748244 -0.023532677
000080 95 2c 42 bd a1 00 09 bd 70 02 45 3d d5 1b aa bb
       -0.047405798 -0.033447865 0.048098028 -0.005191306
000090 8c 7c 2e 3c 92 07 1a be b1 aa 80 3d 44 6b 59 3d
       0.0106498115 -0.1504195 0.06282557 0.053080812
0000a0 b5 a8 17 be d8 0e 68 3d 51 f4 09 be b0 0b 80 3d
       -0.1481045 0.05665478 -0.13472106 0.06252229
0000b0 ef df 92 3c 0f 4e 58 bd 25 cc bd bc 86 ff 13 3d
       0.017929045 -0.052808817 -0.023168633 0.036132358
0000c0 d6 7f 42 3d b9 cf ea bd eb 56 b4 bc 58 c7 8d 3d
       0.047485195 -0.11465401 -0.022014102 0.069227874
0000d0 c7 ad 26 3e b9 7b d0 bc fe 5d b6 3c ba be df 3d
       0.16277228 -0.02544962 0.022261616 0.1092505
0000e0 fa 9a dd 3d 11 f7 aa 3c 7c b1 1c 3e 26 22 ee 3c
       0.10820575 0.020869764 0.1530208 0.029069018
0000f0 81 f1 15 bd 3b 37 63 3c f9 91 8c 3c 71 99 02 be
       -0.03660727 0.013868148 0.017159449 -0.12753846
000100 08 4a f6 bc c4 ba f4 bd 50 b7 89 3c da e7 cb 3d
       -0.030064598 -0.11949685 0.016811043 0.099563316
000110 8c 32 7c 3d c8 77 92 bd 04 ab 69 3d 30 38 9a bc
       0.061571643 -0.07151753 0.05704786 -0.01882562
000120 3c fc 18 3d 40 af e4 3c a2 90 b7 3d a4 e8 37 3d
       0.037349924 0.027915597 0.089631334 0.044899598
000130 f8 a0 f9 bd 00 a4 3b 3d 4c 0b e8 3d 20 c4 cb bc
       -0.121889055 0.0458107 0.1133028 -0.024873793
000140 12 24 95 bd 24 3b b1 3d 80 09 bc 3a 32 c4 90 3d
       -0.072822705 0.08653858 0.0014346093 0.07068671
000150 30 91 b5 3d 86 e5 f1 bd d4 66 e4 bd 00 f3 01 3d
       0.08865583 -0.11811356 -0.111524254 0.031725883
000160 fc d1 e7 bd 54 4c 37 bd 04 ad 9e 3d 7a fb d6 bd
       -0.11319348 -0.044750527 0.07747844 -0.10497184
000170 40 07 47 bc 94 89 20 bd bc 36 40 bd 3e fe e7 bd
       -0.012147725 -0.039193705 -0.0469272 -0.1132779
000180 f8 73 73 bd b8 60 dd bd 70 2b 70 3c 50 f9 0a 3d
       -0.05943677 -0.10809463 0.014658794 0.03392917
000190 98 f4 74 bd ca 7b 89 bd 66 57 e3 3d 96 ef de 3d
       -0.059803575 -0.06713064 0.11100654 0.10885541
0001a0 d6 51 db 3d 86 fc ae 3d 3c b0 50 bd c4 95 26 3d
       0.10708968 0.08544259 -0.05094932 0.04067017
0001b0 7c 16 de 3d 62 8a dd 3d e8 24 86 bc 46 33 e5 3d
       0.10844132 0.1081741 -0.01637502 0.1119142
0001c0 ec 4d 4c 3d c8 24 e4 bc a0 79 c8 bd 74 f1 60 3d
       0.049879 -0.02784957 -0.09788823 0.054917768
0001d0 5c 09 76 bd e0 18 43 bc 38 74 bc bd ae e1 b1 3d
       -0.06006752 -0.011907786 -0.092018545 0.08685623
0001e0 38 62 b6 bc fc d0 8a bd 22 54 92 bd 00 6a 53 3b
       -0.022263631 -0.06778142 -0.07144953 0.0032259226
0001f0 a4 87 ab 3d d4 da d8 bd 08 c0 ec bd d0 44 4f bc
       0.08375481 -0.10588613 -0.115600646 -0.0126506835
000200 5e 60 84 3d f8 c6 47 3a fa 67 be 3d 27 46 00 3e
       0.06463693 0.0007620896 0.09297176 0.12526761
000210 d9 be 03 3e 10 f6 2c bc 3a d1 fd bd 2f 48 bc bc
       0.12865771 -0.010556713 -0.123934224 -0.022983639
000220 b7 3c 89 3d d6 97 7b 3d 7b 0e 17 3d 8c 90 82 bd
       0.067010336 0.0614241 0.036879044 -0.063752264
000230 ac 90 ba 3d 64 8c 4b 3c db 93 00 3e ee f4 e9 3d
       0.09109625 0.012423608 0.12556402 0.1142367
000240 e3 64 a6 bd f2 97 a1 3d c2 9d c7 3c f1 17 ce bd
       -0.08124711 0.078903094 0.024367217 -0.1006316
000250 dc fe 6e bd dc 5d bb bd 3a ca 3c bd 7c ea 72 3c
       -0.05834852 -0.09148762 -0.046091296 0.014826413
000260 fc ee f9 3d 05 1c ff 3d 7e 67 bd bd 4a ec b1 bd
       0.12203786 0.12456516 -0.09248255 -0.08687647
000270 2a b2 8e 3d 23 4e bd bc 48 dc ac 3d 0a de 3b bb
       0.06967576 -0.023108548 0.08440453 -0.002866628
000280 ea 08 aa bd 83 48 5c bd 5a c8 3d bd 76 53 d9 3d
       -0.083024815 -0.05378009 -0.04633365 0.10611622
000290 9f 90 45 3d c3 69 7d bd c7 39 85 3c 9a 57 89 bc
       0.048233625 -0.06186844 0.016262902 -0.016765404
0002a0 b5 01 cd 3c f6 e2 77 3c 66 c2 a7 bd d6 05 58 bb
       0.025025228 0.015129795 -0.081913754 -0.0032962463
0002b0 5a b7 ba bd f7 12 11 3d 28 3a 02 be 4f 72 5f 3d
       -0.09117003 0.035418477 -0.12717497 0.054552373
0002c0 5a 2d cd 3d 13 66 ac bd 9e 90 1e be dc c1 04 bd
       0.10018416 -0.084179066 -0.15484855 -0.03241144
0002d0 a4 80 a2 3d 7b f9 56 bd 65 b0 a7 bd 9b 1c 14 bd
       0.079346925 -0.052484017 -0.081879415 -0.036160093
0002e0 cd 30 63 3d 87 f8 2c 3c 2d 35 96 bd a3 f1 c6 bd
       0.055466462 0.0105573 -0.07334361 -0.09714057
0002f0 59 95 6d 38 4b 1a 55 3d e7 d9 0a bd 1d 22 7d bc
       5.6644294e-05 0.052027028 -0.033899214 -0.015450028
000300 fe 9e 50 bd 32 b4 b6 bc 5c 78 ae bd 82 88 69 bd
       -0.050932877 -0.02230272 -0.085190505 -0.05701495
000310 37 c2 32 bd 78 dd 6e 3b be 0c 4f 3d 43 4a 08 be
       -0.04364225 0.0036447924 0.05054926 -0.13309579
000320 15 9c 8a bc 83 72 f1 bd 47 fd ba 3d cc 83 a6 3c
       -0.016920129 -0.117894195 0.0913034 0.020326518
000330 f0 d5 dc 3c 71 e4 af 3d 8b bf 41 be 81 ef 00 3d
       0.026957482 0.085884936 -0.18920724 0.03147841
000340 5d c9 4c 3d 43 93 14 3d 96 c8 32 3e 5e 12 d5 bd
       0.049996722 0.036273252 0.1745933 -0.10403894
000350 79 fc 17 3e 37 f0 80 3b c5 16 0b 3e c2 9f a6 3d
       0.14842404 0.003934886 0.13582905 0.0813594
000360 b5 58 c1 3d 4c b2 2a 3e c2 d4 e9 bc 8c 56 f5 3d
       0.09440748 0.16669577 -0.028543834 0.11979398
000370 a9 2a 9d 3b 7b c4 15 be c8 71 08 b9 2d 1e 09 be
       0.0047963453 -0.14625733 -0.00013012358 -0.13390417
000380 7b 90 b2 3b 09 2a 1c 3d e3 f7 d2 bc 78 66 05 3e
       0.0054493523 0.038126025 -0.025752967 0.1302737
000390 09 2b e0 bc 8f e6 22 be e2 b8 59 3d 72 25 d7 bc
       -0.02736427 -0.15908264 0.053154834 -0.026262973
0003a0 1c 0c f6 bd 7a f8 69 bc 70 4f 17 bd 55 de 86 3d
       -0.120140284 -0.014280433 -0.036940992 0.06585375
0003b0 21 f7 c0 3d e9 73 92 3c 86 2a 85 3d ad 3b 05 3e
       0.09422136 0.017877536 0.06502251 0.13011046
0003c0 20 e7 18 be 83 14 b2 bc 44 77 96 bd 14 45 38 3e
       -0.14931917 -0.021738296 -0.07346967 0.17995101
0003d0 15 5f 0a 3d a8 41 61 bd 8c 69 48 3d fb de 25 3d
       0.033782084 -0.054994255 0.048928782 0.040495854
0003e0 44 11 03 3e 42 5c 15 3e 99 82 dd 3d 86 25 14 be
       0.12799555 0.14585975 0.10815925 -0.14467439
0003f0 7c 72 8c 3b 8a 6f b2 3d 1c 0f ca 3d 15 be 0b 3c
       0.0042861085 0.08712681 0.09866163 0.008529206

weight_ih_l1 f4 [256, 64]
000000 af 60 20 3f 91 3a 6b 3f c8 f6 e1 3e 7d 12 93 bc
       0.6264753 0.9188624 0.44133592 -0.017953152
000010 9f d1 37 3c 62 e5 6d 3e 42 53 6c 3d 1c 06 c6 be
       0.011219411 0.23232034 0.05769659 -0.38676536
000020 35 b5 79 bf 3c 09 23 bf 34 21 d8 be 5a 1b 07 bf
       -0.97542125 -0.63685966 -0.42212832 -0.5277611
000030 2b 00 23 3e 77 bd 85 bf 2c b0 52 3e d9 99 df be
       0.15918033 -1.0448445 0.20575017 -0.43672064
000040 da 9c 27 3f 47 4b 41 be 41 ea 11 3f 78 1c d4 bc
       0.6547371 -0.18876372 0.5699807 -0.025892481
000050 d7 16 84 bc d6 47 28 3f 6d ed 5d 3f b0 2d 58 3d
       -0.016124172 0.6573461 0.8669041 0.052777946
000060 bb 2a 47 bf 20 15 b4 bd 39 66 60 3e 40 91 94 3c
       -0.77799577 -0.08793092 0.21913995 0.018135667
000070 47 97 24 be 97 26 95 bf f8 c9 03 3f b3 31 05 3e
       -0.16073333 -1.1652402 0.51480055 0.1300724
000080 52 35 4e bc f6 db 7e be 06 42 d8 bd 52 52 b0 be
       -0.012585955 -0.24888596 -0.10559468 -0.34437805
000090 8d 2a 88 bf 32 17 de be 5e 99 cf bc b1 43 5e be
       -1.0637985 -0.43377072 -0.025341686 -0.2170551
0000a0 73 60 5a bf 20 52 19 bf ba f2 30 be 74 23 d1 be
       -0.8530342 -0.5989094 -0.17280093 -0.4084736
0000b0 e4 54 26 3e f9 de 4f be 2c 9e 5f 3e ce f7 04 3f
       0.1624332 -0.20299901 0.21837682 0.5194062
0000c0 1a 19 74 be 9a b6 a4 be 84 c3 74 3e 53 98 2f 3f
       -0.238377 -0.32170564 0.23902708 0.68591803
0000d0 12 32 14 3f 60 f1 ea 3d 5c f5 4c 3f cd 48 26 3f
       0.578889 0.1147182 0.8006189 0.64954835
0000e0 cf 82 2f bf e8 0d 87 3e 4b f9 6a bf 40 6e 46 3f
       -0.68558973 0.26377797 -0.9178664 0.7751198
0000f0 e2 d3 b1 bd f4 b5 a7 be eb d6 7c 3f bc b5 e4 be
       -0.086829916 -0.32756007 0.9876544 -0.44669902
000100 fc 01 14 be 5f 57 7d 3c 56 16 66 3d 5f 3d 82 be
       -0.14453882 0.015462725 0.056173645 -0.25437447
000110 c0 cd c5 be 7c d0 6d be e8 7d 9c 3d 83 4a 39 bf
       -0.38633537 -0.23224062 0.07641202 -0.7237932
000120 98 8e 5f 3e 32 f8 0b 3f 5b d7 2c 3e 38 94 92 3e
       0.21831739 0.5467559 0.16879027 0.28628707
000130 4c 6b fd be 93 3a c9 3e 91 81 6f bf 1f 7b 07 be
       -0.49495924 0.393025 -0.9355708 -0.1323056
000140 44 47 93 3e b6 ad 97 3e c7 1a ca bd fb b8 47 be
       0.2876531 0.29624718 -0.098683886 -0.19504158
000150 6c 48 e5 3e d2 c0 eb 3e 84 95 6b 3f 0a fe 2e 3e
       0.44781816 0.46045548 0.9202502 0.17089096
000160 d3 1d 6e 3f 11 94 5b bf b7 68 05 3f 45 da 86 3e
       0.9301426 -0.85772806 0.5211291 0.263384
000170 02 fe 5f bf 95 99 2a 3f f7 bf 75 be 45 12 87 3e
       -0.8749696 0.666406 -0.2399901 0.26381126
000180 7d 76 66 bd 4d 12 55 be 2e bb 12 3f 82 6f 32 bf
       -0.056265343 -0.20807762 0.57316864 -0.697014
000190 ee 06 0a bf 94 6f 26 be 1a 73 1d bd cf 1a b0 be
       -0.53916824 -0.16253501 -0.038439848 -0.34395453
0001a0 c6 6c 6c 3d 5f fa db be 8c e7 09 3f cc c6 a5 3e
       0.057720922 -0.42964455 0.5386894 0.32378232
0001b0 d3 6e 8b 3e 50 00 67 3e ad 81 56 bf 7e f8 66 be
       0.2723299 0.22558713 -0.8379162 -0.2255573
0001c0 a0 8c 92 3d 85 30 72 3e 66 bd ed 3d 1f 2a a7 3f
       0.07155728 0.23651321 0.116083905 1.3059729
0001d0 3a b5 5a bf b2 b8 6a 3d 2b 69 dd bd 45 26 73 be
       -0.8543278 0.057305045 -0.10811075 -0.23745067
0001e0 5c ef 98 3e 54 0f 86 3f 68 51 11 bf 1b aa cf be
       0.29870117 1.0473428 -0.5676484 -0.40559468
0001f0 c5 c8 48 be 5d 09 80 bf 7f ea 40 3f 6d c2 17 3f
       -0.19607837 -1.0002857 0.7535781 0.59281045
000200 b1 92 b6 3e 72 bd 2d bf 00 0d 31 3e e2 da 7d be
       0.35658792 -0.67867196 0.17290115 -0.24790528
000210 0d 34 ed be 11 1b 79 3f d2 0d ea be 92 30 a8 be
       -0.46328774 0.97306925 -0.4571367 -0.32849556
000220 5b 13 c4 be f9 6e 8f bf 35 99 31 3e 1a 05 c8 3e
       -0.38296017 -1.1205741 0.173436 0.39066392
000230 ad 48 5b bd f7 29 d5 be 48 b8 3a be c8 c8 ed 3e
       -0.053536106 -0.4163358 -0.1823436 0.46442246
000240 bc 86 ba be 62 61 57 be a1 b5 1c be 0c 15 5f 3f
       -0.3643092 -0.21033242 -0.15303661 0.8714149
000250 81 aa 38 3f 6d 7c c9 3e 8b 1f 68 3e bd ca 9d 3e
       0.7213517 0.39352742 0.22668283 0.3081874
000260 f2 1b b6 3e 4d b1 21 bf 15 35 89 3a 0e 67 30 3f
       0.35568196 -0.63161165 0.001046809 0.6890725
000270 84 c0 25 bf 6f 8c 66 3e 71 ce 69 3e a4 bb a4 3e
       -0.6474688 0.22514509 0.22832657 0.32174408
000280 73 be 89 3e c1 c7 31 3d f5 49 03 3f da 73 0e 3f
       0.26903114 0.04340339 0.51284724 0.55645525
000290 b2 85 42 bf d2 6f 21 c0 e0 e4 bc 3e 04 9e 42 bf
       -0.7598525 -2.52245 0.36893368 -0.7602236
0002a0 57 25 bd bd 98 ef 87 3d 42 cb 73 3e ff 01 c2 3e
       -0.09235638 0.06637496 0.23808005 0.37892148
0002b0 1f 87 d5 3e e2 58 b9 3f 9d bc 43 ba 27 1a 75 3e
       0.41704652 1.448025 -0.0007466765 0.23935758
0002c0 db fc 0d 3d aa 4d f5 bd e0 5c 20 be 66 e8 f4 bd
       0.03466497 -0.11977704 -0.15660429 -0.11958389
0002d0 64 35 12 bf 5c 46 29 3f 83 42 4d bd f8 40 1c 3f
       -0.5711272 0.66122985 -0.05011226 0.61036634
0002e0 a8 59 4d be 69 b1 b6 be 8f a2 43 be 30 f4 a1 3e
       -0.20053732 -0.35682228 -0.1910498 0.31631613
0002f0 48 f9 22 3e bc c8 88 be 4d 4f 33 3f e0 b1 a0 bf
       0.15915406 -0.26715648 0.7004288 -1.2554283
000300 6a 99 8a bf af c4 af 3e 20 72 1e bf b2 24 1c bf
       -1.0828068 0.34329745 -0.6189289 -0.6099349
000310 e7 b1 7f bf 10 13 38 3f 28 3d 08 3f e0 32 b2 be
       -0.9988083 0.7190409 0.5321832 -0.3480444
000320 ac 4d 2a be ab 95 a6 be 31 f1 b3 be 43 05 34 bf
       -0.16631192 -0.32536063 -0.35144952 -0.7032053
000330 ad 4f 0a bf b8 00 57 3f 23 7c 49 3e 5b b4 ee be
       -0.54027826 0.8398547 0.1967626 -0.46621975
000340 07 78 42 3f c6 fd 50 be 40 e6 e1 bb 28 53 b9 3e
       0.759644 -0.20409307 -0.006893903 0.36196256
000350 00 9b c9 be 1f 30 21 be 3b 71 11 3b d4 48 22 bf
       -0.39376068 -0.15741013 0.0022192735 -0.63392377
000360 20 c3 fd bd 7d 38 22 3c 15 07 9e 3e 0d dc ea 3e
       -0.12390733 0.009901163 0.30864778 0.4587101
000370 a3 14 15 bf 94 c1 3b 3e 39 7a 36 be b2 7c 8d bf
       -0.58234614 0.18335563 -0.17820062 -1.1053679
000380 9f e0 9c 3c 4e b5 89 bd ee ec 4d bf ce d8 16 be
       0.019150076 -0.06724034 -0.8043965 -0.14731142
000390 a2 dc 57 bc 12 7d d6 be b7 0a 90 be e2 7d d2 3e
       -0.013175162 -0.41892296 -0.28133175 0.41111666
0003a0 13 39 16 3f 49 00 22 3f 36 45 80 bd 61 93 38 bd
       0.5868084 0.63281685 -0.06263201 -0.045062426
0003b0 62 08 9b bf 93 15 ac 3d 59 14 73 be 8b 09 0b 3f
       -1.2111933 0.084025525 -0.23738231 0.54311436
0003c0 9c 10 82 be 16 47 aa bf 87 f1 0a 3f ec b3 82 3f
       -0.25403297 -1.3302944 0.5427479 1.0211158
0003d0 11 f6 ce be 11 71 a0 be e3 71 df 3e e1 be 76 3e
       -0.4042211 -0.31336263 0.43641576 0.24096252
0003e0 4f 45 c3 3e 08 51 24 be af 4d 7f 3f 03 17 c7 3d
       0.38138816 -0.16046536 0.9972791 0.09721186
0003f0 2a 1f ee bd b6 ff c5 be cd 01 91 bf 0b 94 20 3f
       -0.11627038 -0.38671654 -1.1328675 0.62725896

weight_hh_l1 f4 [256, 64]
000000 a0 78 c4 bc cc a4 c8 3d a0 d9 6d 3d c2 01 fa bd
       -0.0239833 0.097970575 0.05806887 -0.122073665
000010 d0 51 e1 3d 30 ba 07 3d 20 26 33 3c 00 3e dd bb
       0.110019326 0.033136547 0.010934383 -0.0067517757
000020 54 a6 4a 3d 0e ad ca bd fc e1 f8 bd 04 b2 4b bd
       0.04947503 -0.09896289 -0.12152478 -0.049730316
000030 6c f5 4f 3d dc 5e b7 bd 20 9c dc 3c ec 87 54 bd
       0.050771162 -0.0895364 0.026929915 -0.051887438
000040 8c f9 fe bd c6 5d a4 3d 58 77 00 3d 04 e4 1a bd
       -0.12449941 0.08025698 0.031363815 -0.03781511
000050 90 47 35 3d 86 33 fc 3d 3e 3d cf 3d 60 13 18 3c
       0.0442577 0.12314515 0.10119103 0.009281963
000060 9c 38 08 bd d8 bf 4e 3d 32 0e e9 bd 30 93 ec 3d
       -0.033257112 0.050475925 -0.11379661 0.11551511
000070 fa 66 d5 bd 2e 69 8a 3d 20 d8 a0 bd b8 b0 a2 bd
       -0.10420032 0.06758343 -0.078537226 -0.07943863
000080 f6 5e b3 3d 18 1e d2 bd c0 12 87 bb 62 d1 fa bd
       0.08758347 -0.10259646 -0.004122108 -0.12246968
000090 78 aa df bc 30 6e cc bd 00 39 2c 3d e0 4d 67 bc
       -0.027302966 -0.09981954 0.042046547 -0.014117688
0000a0 20 b7 60 3d 9a 6c e1 3d 6e 73 e7 3d 58 94 48 3d
       0.05486214 0.11007042 0.11301313 0.048969597
0000b0 70 7d 02 bc 00 04 ca 3b 9c ad a2 bd 58 c2 97 bc
       -0.007964477 0.0061650276 -0.079432696 -0.018525288
0000c0 0a d1 a4 3d 20 c1 d1 bb 48 52 ab bd 60 2a 61 3c
       0.080476835 -0.006401196 -0.08365303 0.013743013
0000d0 88 18 a1 bd 40 95 4d bd d0 df b8 3d 80 f4 95 bb
       -0.07866007 -0.050191164 0.09027064 -0.004576266
0000e0 2c 1a 29 3d 68 ff f7 bc 96 cb f2 3d 64 46 6f 3d
       0.041284725 -0.030273154 0.11855237 0.05841674
0000f0 e8 50 e8 bd 4a af ab bd 66 61 e9 3d 24 e7 cf 3d
       -0.11343557 -0.08383043 0.113955304 0.101515085
000100 b0 7c 5a bd 48 bc f4 bd 00 80 ab 3a e8 49 2c 3d
       -0.053341568 -0.11949974 0.0013084412 0.04206267
000110 6c ee 5b 3d a2 fe f2 bd 06 d8 c4 3d 58 7a 42 bd
       0.053694174 -0.118649736 0.09611516 -0.047479957
000120 80 4a cb ba 64 11 75 3d 20 92 3b bd a2 7a b3 bd
       -0.0015509874 0.059831038 -0.045793653 -0.08763625
000130 e8 0a 82 3c f0 03 2e 3c 70 cf a6 3d 00 d3 47 3c
       0.015874341 0.010621056 0.08145034 0.012196302
000140 00 99 7f bb 28 f9 a8 bc 50 5d bb bd fc 83 34 bd
       -0.0039001107 -0.02062662 -0.09148657 -0.044071183
000150 e2 1b f0 bd 12 09 ff 3d e0 4d c2 bb 34 86 8d bd
       -0.11724068 0.12452902 -0.0059296936 -0.06910363
000160 18 76 c8 3c f8 29 8d bd ca a5 e2 bd 44 1c 42 3d
       0.024470374 -0.068927705 -0.11066778 0.047390237
000170 48 4a a1 bd d8 86 02 3d 50 44 8c 3d f4 b3 9f 3d
       -0.07875496 0.03186688 0.06848967 0.07797995
000180 96 61 d3 bd c4 aa f1 3d 30 c2 3f 3c 00 4c 31 bc
       -0.103213474 0.11800149 0.011704013 -0.0108213425
000190 e4 39 d4 bd 7a f0 91 bd ca c3 f9 bd 68 78 a1 3d
       -0.10362604 -0.071259454 -0.12195547 0.07884294
0001a0 b0 97 e4 3c 60 f4 c6 bb 58 6a ce 3d 80 a4 ed ba
       0.027904361 -0.0060716122 0.10078877 -0.001813069
0001b0 cc 1b ce bd d8 16 bf 3d c0 e7 d0 bc ac e6 4c 3d
       -0.100638956 0.09330529 -0.025501132 0.050024673
0001c0 24 b4 1b 3d b8 77 90 3c 70 18 6e 3c 8c 68 a7 bd
       0.038013592 0.017635211 0.014532194 -0.081742376
0001d0 40 af 13 3c d4 c8 0c 3d e0 68 45 bd 04 56 b1 bd
       0.009013951 0.034371212 -0.04819572 -0.08658984
0001e0 f4 8b 5e bd e0 cb 81 3d f0 03 d2 bd a0 ca 61 3d
       -0.05433269 0.06337714 -0.10254657 0.05512488
0001f0 8c f6 9a bd 6c 52 6f bd 98 c3 e5 bc 4c 66 18 bd
       -0.07566556 -0.058428213 -0.028047368 -0.037206933
000200 40 9c ab bb 5a 01 86 bd 20 37 90 bb 40 e8 21 bb
       -0.0052371323 -0.065432265 -0.0044011027 -0.0024705082
000210 82 a5 db bd 6c 91 35 bd 60 77 3a bc 4c 2b 87 3d
       -0.107249275 -0.04432814 -0.011381 0.06600055
000220 70 9c e8 bd 1a 6b e8 bd ca 7c c0 3d 00 93 a1 bb
       -0.11357963 -0.11348553 0.093988016 -0.004930854
000230 3e 91 f2 3d 0e f6 f1 3d f0 8b 9d 3d 18 c7 a6 bd
       0.11844109 0.11814509 0.076927066 -0.08143443
000240 e8 7b 37 3d 4c c2 44 3d 6e fd 89 3d 02 c7 da 3d
       0.0447959 0.04803686 0.06737791 0.10682489
000250 60 0e 60 bd d0 08 ee bc be b6 aa bd b8 50 35 bd
       -0.05470121 -0.029056937 -0.083356366 -0.044266433
000260 a0 40 69 bd 90 3e 11 3d 18 b7 ad bc 48 e4 f4 bc
       -0.056946397 0.035460055 -0.02120547 -0.02989401
000270 08 e6 f1 3c 80 a7 38 bc c0 80 be bc 7a ce cd bd
       0.029528633 -0.011270404 -0.023254752 -0.10049148
000280 e0 06 51 3d b0 ad 86 3c 38 59 a2 3c 90 6d 81 3c
       0.051031947 0.016440243 0.019817933 0.015799314
000290 e0 73 0d 3c 40 a0 56 bc 34 00 ad 3d 60 c2 7d 3d
       0.008633584 -0.01309973 0.08447304 0.06195295
0002a0 d4 a6 aa 3d 7c 2d 40 bd 78 c9 c7 3c 78 6b c3 bd
       0.08332601 -0.046918377 0.02438806 -0.095419824
0002b0 2e 8a fb bd 00 d8 45 3c 40 1f de 3b 6c 2d 2a bd
       -0.12282215 0.012075424 0.0067786276 -0.041547224
0002c0 fc d9 d9 3d fa 51 c5 3d e0 9e 63 bc 00 c6 3a 3b
       0.1063728 0.096347764 -0.013892859 0.0028499365
0002d0 90 10 22 bc a6 bd cd bd 80 2c 25 bb 6c 2f 37 bd
       -0.009891644 -0.10045938 -0.0025203526 -0.04472296
0002e0 0c 33 74 bd c0 ba b9 bc a4 19 a9 bd 0a ab a6 3d
       -0.059618995 -0.022672057 -0.08256844 0.08138092
0002f0 04 51 c0 3d 2e c5 c2 3d 9a ee a9 bd 36 bf c2 bd
       0.093904525 0.09510265 -0.08297463 -0.09509127
000300 5e 7f f4 3d f6 b7 e2 bd ac 8c 2f bd 4c 67 28 bd
       0.11938356 -0.11070244 -0.042858765 -0.041114137
000310 42 16 f1 3d a2 9d 8b 3d 32 43 82 3d 0c a4 86 3d
       0.117718235 0.068171754 0.06360473 0.06574258
000320 a4 e1 24 3d 8c a7 d7 3d f8 0f 5c 3d f4 cf 16 3d
       0.04025425 0.10530004 0.053726166 0.036819413
000330 ac 63 1d bd b8 d6 11 3d 98 e7 1f 3d 26 a5 a1 3d
       -0.038425133 0.035605162 0.039039224 0.07892828
000340 56 a5 fb bd c0 e8 5c 3c 40 20 c6 bb 58 0a 0a 3d
       -0.12287395 0.013483226 -0.006046325 0.03370127
000350 04 fb 71 3d 80 bc e9 bb a6 4b 87 3d 60 b5 fe bd
       0.059077278 -0.0071330667 0.06606226 -0.12436938
000360 0c 99 68 bd ee de d5 3d 9e dd d6 3d de 92 ed bd
       -0.056786582 0.10442911 0.10491489 -0.11600278
000370 86 7d a2 bd 66 4c b2 3d 7c bd b6 bd 90 94 09 bc
       -0.07934098 0.08705978 -0.0892286 -0.0083972365
000380 30 e2 2a bd 70 29 d8 3c 88 0b 97 3c 50 50 3a 3d
       -0.041719615 0.026386946 0.018438116 0.04548675
000390 0a e0 8f bd ea 84 85 3d ca eb c2 bd 7e ca d4 3d
       -0.07025154 0.06519492 -0.095176294 0.10390185
0003a0 20 df f2 bb 62 43 96 3d 40 eb 03 bc 68 90 5c 3d
       -0.0074118525 0.07337071 -0.008051693 0.053848654
0003b0 9c 19 09 3d 50 e7 d9 3d 80 31 4e bd 08 93 2f 3d
       0.03347169 0.106398225 -0.050340176 0.04286483
0003c0 f8 ec b9 3d 64 8c f0 3d 90 0a 0d bd 26 34 fe 3d
       0.09078401 0.117455274 -0.0344339 0.1241229
0003d0 26 cc c8 bd dc 46 31 3d a4 10 92 bd fe 6a cf bd
       -0.09804563 0.043280467 -0.0713208 -0.10127829
0003e0 1a 46 ec bd 06 36 ec 3d 00 4c 47 bc 4c e4 68 3d
       -0.11536808 0.11533742 -0.012164116 0.056858346
0003f0 2c 7a 0b 3d 74 f2 27 3d 10 44 d7 bc a0 8a 60 3d
       0.03405206 0.041002706 -0.026277572 0.054819703

bias_ih_l1 f4 [256]
000000 f8 fd c1 be 91 85 10 be de 17 f1 be 73 7a 91 be
       -0.37889075 -0.14113452 -0.47088522 -0.28413734
000010 c3 ee 58 be 8e 1c ca 3d 21 27 7b bd ca 01 5f be
       -0.2118483 0.098687276 -0.061316613 -0.21778026
000020 f5 29 ae bc 22 2f e3 bd 94 c3 22 be 12 a5 8c be
       -0.021260241 -0.11092974 -0.1589492 -0.2746969
000030 eb 90 e3 3e b6 04 22 be 3c 43 02 be c9 e9 e9 be
       0.444465 -0.1582211 -0.1272096 -0.45686176
000040 19 15 b5 be e0 dc d5 3d c7 e5 64 3e 74 37 2c be
       -0.3536766 0.10442519 0.22353278 -0.16818029
000050 20 b2 53 be d3 bf 62 be 68 aa 90 be 53 5f 04 be
       -0.20673418 -0.22143488 -0.2825501 -0.12926988
000060 a0 44 4c bd 62 6a 80 be d3 5f be bc f1 8a 31 be
       -0.049870133 -0.25081164 -0.023239052 -0.17338158
000070 72 63 c9 be bd 88 83 bd 2f 3f 05 be 64 07 7c be
       -0.39333683 -0.06422565 -0.13012384 -0.24612194
000080 1d 7f aa bc 32 ef 61 be a7 99 cd bd db 66 63 3d
       -0.020812565 -0.22063902 -0.100390725 0.055518012
000090 b5 7b a4 be 65 bd 05 3d 8c 1c c7 be ea 46 da bd
       -0.3212563 0.032651324 -0.38888967 -0.10658057
0000a0 5a 7e 8b be 93 39 6d 3e 5f aa c2 be 25 5d 0d 3e
       -0.27244836 0.23166494 -0.38020608 0.13805063
0000b0 7c 81 35 be b7 b0 86 3d e8 39 8d be eb 78 ae be
       -0.17725176 0.065766744 -0.2758324 -0.34076628
0000c0 18 66 1c 3d 73 ee 07 3e 12 dd 9d be 84 ee 06 be
       0.0381833 0.13274555 -0.30832726 -0.13176924
0000d0 92 b9 7d be 6e 01 e8 bc 88 b7 2d 3c 7b 41 9f be
       -0.2477782 -0.028320994 0.010602839 -0.31104645
0000e0 73 f8 89 be cb 6f ae be e3 c8 6e be fb ca 46 3e
       -0.26947364 -0.34069666 -0.2331882 0.19413368
0000f0 e7 f8 e3 be 2d b7 11 be 53 6f 36 be e6 90 c1 3e
       -0.44525835 -0.14230032 -0.17815904 0.3780586
000100 28 a0 82 3d 88 6b 17 bd ce 70 d8 bd 28 fb 99 3d
       0.06378204 -0.036967784 -0.10568391 0.075186074
000110 40 57 9d 3c 94 90 f6 3d 24 6b c9 bd 66 ff c6 bd
       0.019206643 0.12039295 -0.098348886 -0.09716682
000120 a4 27 fc bd ec e8 95 3d d0 bb d8 3c 40 be 2c 3b
       -0.12312248 0.07319817 0.026456743 0.0026358515
000130 80 f7 5f 3d 34 d6 33 3d 80 8e 8e bb 94 b4 bf bd
       0.054679394 0.043905452 -0.0043504834 -0.093606144
000140 c4 b6 06 bd d0 4d 8c bc 20 9a e7 bd ae bd f7 bd
       -0.032889143 -0.017126948 -0.11308694 -0.120967254
000150 2a e8 d3 bd dc 3e da bd d8 0d 03 bd dc 0a 6b 3d
       -0.10347016 -0.10656521 -0.031995624 0.057383403
000160 a0 8a 46 3d 88 b0 e4 3d a2 4f 8c bd a0 fb b4 bb
       0.048472047 0.11166483 -0.06851126 -0.00552316
000170 cc b8 b6 bd cc 8e 40 3d 04 1f 2d 3d 74 80 dd 3d
       -0.08921966 0.04701118 0.042265907 0.10815516
000180 a2 b0 94 bd 20 fe 23 3c 6e cc 9f bd 08 f3 53 3d
       -0.072602525 0.010009319 -0.07802664 0.051745445
000190 f8 97 c2 3c 50 d1 f0 bc de 70 d3 bd f0 e8 7c 3c
       0.023754105 -0.029396683 -0.10324262 0.015436396
0001a0 c8 ab a9 3d 4c 59 5b bd 6c ca 6f bd f4 46 8d 3d
       0.08284718 -0.053551957 -0.058542654 0.06898299
0001b0 48 28 b0 bd f0 34 50 3c 88 08 e4 bd c4 9a 05 3d
       -0.08601433 0.012707934 -0.1113444 0.0326183
0001c0 18 83 f1 3c da d8 85 3d 74 02 00 bd b8 88 df bd
       0.029481456 0.06535502 -0.03125234 -0.10914749
0001d0 20 70 83 bb 20 04 85 3b 36 57 d1 bd 3e 9f a5 bd
       -0.004011169 0.0040593296 -0.10221712 -0.08087014
0001e0 e8 80 62 bd e4 92 1f bd b0 26 55 bd f0 42 54 bc
       -0.055298716 -0.038958445 -0.05203885 -0.012955412
0001f0 76 ba cd bd a8 21 7a 3d 34 2f 60 3d e2 f4 9d 3d
       -0.1004533 0.061067253 0.054732516 0.07712723
000200 bb 48 80 3c 91 6e c2 bd e0 a5 a7 bd dc 50 c5 bc
       0.01565968 -0.09493745 -0.08185935 -0.024086408
000210 97 29 95 3d ca a3 f8 bc c3 aa ca bd 27 d9 34 bd
       0.07283323 -0.030351538 -0.098958515 -0.044152405
000220 1c 3f 5e be 22 72 6d 3d 5c 8e 9c 3c d7 d5 ad bc
       -0.21703762 0.057970174 0.019110851 -0.02122013
000230 20 e7 1b bd cd d7 fd 3b e8 b2 ba 3d d8 91 1b 3e
       -0.038062215 0.0077466727 0.09116155 0.15192354
000240 ae a0 ff 3d 9b a0 8b 3b 36 00 95 3d fa 55 08 3e
       0.12481819 0.004261089 0.07275431 0.13314047
000250 dd 0c 4b 3e e1 1f 06 be 32 81 30 3d 39 ce a4 bb
       0.19829126 -0.13098098 0.04309196 -0.0050294665
000260 f1 41 0b 3c f4 b9 8e 3d c3 19 1d 3d 8c 8b 5e bd
       0.008499608 0.069690615 0.038354646 -0.0543323
000270 7d a0 17 3c cb c9 11 be 2d 2c 43 bc ee 4d 91 bd
       0.009254572 -0.14237134 -0.011912388 -0.07094942
000280 1f 69 ce 3d 50 08 11 bd 62 c3 23 bd ce 1e 0b bd
       0.10078644 -0.035408318 -0.039981253 -0.033964925
000290 c9 0e ca bc 70 59 87 3d 4a 9f d9 bc 2e 0e 94 3d
       -0.024665253 0.06608856 -0.026565213 0.07229267
0002a0 d4 72 68 bd 03 ed 04 be b9 63 1b bc 24 56 0d be
       -0.056750134 -0.12981038 -0.009484225 -0.13802391
0002b0 86 87 e2 bd 21 f3 92 bd 3f 8e e2 3d 75 94 3a 3d
       -0.11061005 -0.071752794 0.110622875 0.045551736
0002c0 7c 85 a7 bd 42 4a f7 3a 00 7b a0 bd 0d 39 37 3d
       -0.08179757 0.0018866735 -0.078359604 0.044732142
0002d0 00 3b 87 3d 85 35 06 3e bb 55 b5 bb 8e 35 7c 3d
       0.0660305 0.13106354 -0.0055339015 0.06157451
0002e0 7f 6c 1c 3e 7f fb c7 bd 3d a1 13 3e 6c 95 7e bd
       0.15275763 -0.09764766 0.14416976 -0.06215422
0002f0 c4 be 82 3d 58 2e 1c 3d 1a 6e d6 bd fc 6b 15 be
       0.06384042 0.038130134 -0.10470219 -0.14591974
000300 dc ed 8e be 67 6e 3c be 18 4a 90 be c3 b0 8b be
       -0.27915847 -0.1840149 -0.2818153 -0.27283296
000310 ff b0 eb be 80 96 5c bd 5b 61 57 be e5 10 9f be
       -0.46033475 -0.053854465 -0.21033232 -0.31067577
000320 ba 4d 2f bd 31 1b 1d be 47 8b 3d be cb a4 94 be
       -0.042798735 -0.15342404 -0.18510161 -0.29031977
000330 43 bc 88 3e 18 c7 9e be fd 25 03 be f7 ea a7 be
       0.26706132 -0.3101127 -0.1280746 -0.3279645
000340 a7 4d 9e be 7a 78 94 3c e1 29 90 3e 43 cb a0 be
       -0.3091862 0.018123854 0.2815695 -0.31405076
000350 5c a1 80 3d 27 22 cf be be 17 75 be 53 98 10 be
       0.06280777 -0.40455744 -0.23934838 -0.14120607
000360 37 a5 0a be 05 59 7b be 64 cf ce bc b9 02 5f be
       -0.13539587 -0.24545677 -0.025245376 -0.21778382
000370 89 12 eb be 88 96 62 be c2 b0 b8 bd a9 b8 9a be
       -0.4591258 -0.22127736 -0.09018089 -0.3021901
000380 0e 5c 24 3c 60 23 8e be d2 b3 15 3e 9d d9 10 be
       0.010031713 -0.27761364 0.14619377 -0.14145513
000390 83 70 84 be 6e 64 71 bc 09 1b 3b be af 4f 89 be
       -0.2586709 -0.014733417 -0.18272032 -0.26818606
0003a0 45 43 79 be 74 94 87 3e eb 15 b1 be c6 2c 23 bd
       -0.24342068 0.26480448 -0.34587035 -0.03983762
0003b0 2e a7 22 be 83 ea 97 bd 5d 2c 91 be 8a e4 87 be
       -0.15884086 -0.074177764 -0.2835416 -0.2654155
0003c0 d6 af 90 bd 86 dc 21 3b 44 40 b6 be 94 0e 0b be
       -0.07064788 0.0024698093 -0.35595906 -0.1357978
0003d0 81 73 91 be 54 81 71 be 00 69 05 be 1c 10 70 be
       -0.28408435 -0.23584491 -0.13028336 -0.23443645
0003e0 a3 72 12 be 00 86 6f be fb 62 07 be 2d 67 6a 3d
       -0.14301543 -0.2339096 -0.13221352 0.057227302
0003f0 5a 54 ee be 47 92 8b be 70 e7 a0 bd 11 5e c0 3d
       -0.4654873 -0.27260038 -0.07856643 0.09392942
